VAE_weights/VAE.pth (torch, 29576 bytes, 58 tensors)

linear1.weight f4 [50, 6]
000000 fd 9c 82 3e d0 2f ac 3e 6e 09 ad bd 94 8f d0 3e
       0.25510398 0.33630228 -0.08449064 0.4073454
000010 5c fb 69 bd 58 e0 bf 3d 79 96 42 be 70 17 54 3e
       -0.05712448 0.09368962 -0.19002713 0.20712066
000020 0f 03 b6 3e 4f 17 a7 be b3 ef a7 3e 9e 8d e3 3d
       0.3554921 -0.3263497 0.32800063 0.11110996
000030 e6 24 a6 3e c4 40 f5 3d 3a c0 77 3e 9d 8a b7 bd
       0.32450026 0.11975244 0.24194422 -0.08961985
000040 8e c2 90 3e 61 32 52 3d 0b 40 48 be 87 4c c6 3d
       0.28273433 0.051317576 -0.1955568 0.09682565
000050 dc 94 44 be 1b fa 60 bd fb 02 31 be 63 44 89 3e
       -0.1919741 -0.05492602 -0.17286293 0.26809987
000060 34 70 a7 be 27 e8 48 be b2 cb 01 be cb 2e 84 be
       -0.32702792 -0.19619809 -0.1267536 -0.2581695
000070 44 9b d3 3c 1b 6f ca be 00 89 ac 3e 0d eb bf be
       0.025830872 -0.39537892 0.33698273 -0.37484017
000080 80 1d 92 3e 66 65 28 3d b3 36 23 be 63 66 92 3e
       0.28538132 0.041112326 -0.15938835 0.2859374
000090 34 61 c9 3d 2f 90 bf 3e eb 7f ac 3d c6 dc b1 bd
       0.09832993 0.3741469 0.08422836 -0.08684687
0000a0 31 3b 1b 3e 00 ff 5a bd ae b1 1e 3e 65 f9 94 3e
       0.15159298 -0.053465843 0.15497467 0.29096523
0000b0 05 32 8b 3e 35 37 07 be ca 6e 90 3e a0 46 b1 3d
       0.271866 -0.13204654 0.28209525 0.08656049
0000c0 96 85 17 3e bf 91 9b be 1a 37 e7 be 0b fc 4f be
       0.14797053 -0.30384633 -0.45159227 -0.2031099
0000d0 26 8f b7 be 16 b4 92 3e d4 2d 3b 3e 76 b9 63 3e
       -0.358514 0.2865302 0.18279201 0.22238716
0000e0 c4 02 4b 3e 35 13 74 3d 9b ba c5 3e 78 f5 53 be
       0.19825274 0.05958863 0.3861893 -0.20699108
0000f0 99 40 2f 3d 3f aa 84 be 3e 73 12 3e e1 fb f4 bd
       0.042786215 -0.25911137 0.14301774 -0.119621046
000100 81 92 15 3e 6f a5 0c be 4f fd 9d 3e 94 67 8c be
       0.14606668 -0.13734983 0.30857322 -0.27422774
000110 c7 9d 8e be bd f3 8f be 83 b8 a8 3e 89 39 a3 3d
       -0.2785475 -0.28115645 0.3295327 0.07969958
000120 3c db ba 3e bf 63 c2 be ff b8 e4 be f1 4b c1 be
       0.36495388 -0.37966725 -0.4467239 -0.3775325
000130 43 5f aa be ff f5 cd 3d c8 85 1d 3e a1 d7 b9 3e
       -0.33275804 0.10056686 0.15383065 0.36297324
000140 ef 16 4c be 5b 58 83 be 63 1a 74 3e c1 2b 0f be
       -0.19930623 -0.25653347 0.2383819 -0.13981535
000150 fa 2e 6d 3e 12 38 e4 bd 42 8d 5f 3e 51 68 a9 be
       0.23162451 -0.11143507 0.2183123 -0.330874
000160 28 f9 60 be 5c 45 f8 3d 52 ba 0e 3e d4 d8 40 bd
       -0.21970046 0.12122604 0.13938263 -0.047081783
000170 10 ed 9a 3e b1 69 af 3e 8e 85 6c be f9 e3 03 be
       0.3025899 0.34260324 -0.23097822 -0.12879933
000180 83 16 a8 3e bf c9 2f be 86 62 2d be 68 3b d1 be
       0.32829675 -0.17166804 -0.16932115 -0.40865636
000190 15 5e 7d be 47 95 d0 3d 80 fd 01 bd 29 a4 8e be
       -0.2474292 0.101847224 -0.031735897 -0.2785962
0001a0 9f 3f 92 3c aa a3 8c be ac 31 af be 6c 82 71 be
       0.017852603 -0.27468616 -0.34217584 -0.23584908
0001b0 50 9f ad be 2d 4d 76 be cd 45 d8 3e 10 24 bb 3d
       -0.33910608 -0.24052878 0.42240754 0.09137738
0001c0 df 6f 0f 3e 74 fe bc be f0 68 71 be 66 cc c6 bd
       0.14007519 -0.36912882 -0.23575187 -0.09706955
0001d0 2c b5 e3 3d d2 2b 9b be d8 3c f5 bd 77 91 94 be
       0.1111854 -0.3030687 -0.11974496 -0.2901723
0001e0 49 d1 c7 3d fb 22 4c bd 2a f1 a0 3d f9 9a 27 be
       0.09756715 -0.049838047 0.078584984 -0.16367711
0001f0 0d 45 2b be 62 4d aa be 16 87 1e be a4 18 ad be
       -0.1672556 -0.33262163 -0.15481219 -0.33807862
000200 0a 18 a7 3e c7 24 c8 bd 4d 4a ab 3e 6a 6c 1d 3e
       0.32635528 -0.0977264 0.33455124 0.15373388
000210 c1 d8 99 be b8 58 a5 3e 28 b7 9b bd b2 48 ff bd
       -0.30048183 0.3229425 -0.07603294 -0.124650374
000220 62 33 9d be 63 5b e3 be ff c4 3d 3e 49 e7 68 bc
       -0.30703264 -0.4440566 0.1853218 -0.014215299
000230 15 1c 6a 3e 4e 6a 87 be a8 4e bf 3e 77 72 22 be
       0.22862275 -0.26448292 0.37364697 -0.15863977
000240 1a 8e 5a bc d3 a8 ce 3d cf be 81 3e 70 de b0 3e
       -0.013339544 0.100907944 0.25340888 0.34544706
000250 b0 88 c6 3e 61 2b 9a be 39 b7 38 3e c4 a3 be bd
       0.3877616 -0.3011122 0.18038644 -0.093085796
000260 57 c0 1b 3d 6a c0 61 be 6d f7 e9 3e ca 8e 1b be
       0.038025226 -0.22046056 0.45696583 -0.15191188
000270 f7 26 7c 3e a2 75 61 3e d1 42 14 3e 11 bb 44 be
       0.24624239 0.2201753 0.14478613 -0.19211985
000280 48 a2 cc 3e 6c 8d 3b 3d 90 8a 51 3d 47 89 b9 be
       0.3996756 0.045789167 0.051157534 -0.36237547
000290 06 d5 30 3e c5 44 7f bd 6e 9e 40 be e5 31 b3 3e
       0.17268762 -0.062321443 -0.18810436 0.34999004
0002a0 a7 7a 14 3e cf 50 34 be 5d bc 1f be 88 04 e1 3c
       0.14499913 -0.17608951 -0.15599199 0.027467981
0002b0 83 c1 8c 3e dc f3 f1 bd 4b 0e 4e be 13 38 dd bd
       0.27491388 -0.118140906 -0.2012264 -0.10801711
0002c0 49 f7 8c be 21 a9 34 3e 0d 94 b1 3e 53 89 d8 be
       -0.27532414 0.17642643 0.34683266 -0.4229227
0002d0 29 c3 85 3d a3 1d 3a 3e f4 01 3d 3d cc c7 31 be
       0.065313645 0.18175368 0.04614444 -0.17361373
0002e0 c6 4a 3d 3e 46 0d 7c 3e d6 37 49 3e 00 a9 c0 bc
       0.18485555 0.24614438 0.19650206 -0.023518085
0002f0 ed 1b 81 bd 63 9c b9 3d 01 23 ce bc d2 c7 8f bd
       -0.063041545 0.090630315 -0.025163176 -0.070205346
000300 4b e9 b1 3e fe ed a5 3e 4a 22 82 bd b6 c4 2a be
       0.347483 0.32408136 -0.06354196 -0.16676602
000310 40 23 8e bd fa aa 00 bc e7 1d 61 3d 45 da 94 3d
       -0.06940317 -0.007853264 0.054960158 0.07268194
000320 6b d0 d1 be 76 34 41 be 31 8f 9c 3e a9 5b 11 3e
       -0.40979323 -0.18867669 0.30577996 0.14195122
000330 32 bc 52 bd e4 1e 8d be fa 97 89 be e9 2c c5 be
       -0.05144901 -0.2756263 -0.2687376 -0.38510826
000340 6c 25 1c be 37 35 ed 3d 8d fe 4a 3e c2 98 04 3e
       -0.1524865 0.115824156 0.19823666 0.12948897
000350 2c fc d5 be 56 a0 99 be 2f a9 f3 bd b1 34 a7 3e
       -0.41793954 -0.3000514 -0.118975036 0.32657388
000360 a9 e2 8e 3d 18 8b c6 bd 28 e7 32 3e 09 b7 1a be
       0.06976826 -0.09694499 0.17470992 -0.15108885
000370 4b 09 85 be 26 0a 9c 3e 1f d8 3e be ef 98 b1 bd
       -0.25983652 0.30476493 -0.18637131 -0.08671748
000380 5c 05 d3 be a9 bb 86 3e 02 34 99 3e ec 16 41 3e
       -0.41215026 0.26315048 0.2992249 0.188564
000390 1c 71 8c be 1b e0 cb be 10 7b a8 be 3b 52 9a 3e
       -0.27430046 -0.39819416 -0.3290639 0.30140862
0003a0 8b 9c 45 3e 1c 5c b7 3e da f2 82 3e 4f 6c 13 3e
       0.19297998 0.3581246 0.25575906 0.14396785
0003b0 62 12 1b 3d 12 e5 87 be 44 04 9c be 84 c7 dc be
       0.037859328 -0.26541954 -0.30472004 -0.43120968
0003c0 82 b6 23 3e 23 61 53 be 10 5a b2 bd 39 29 74 be
       0.1598759 -0.20642523 -0.08708584 -0.2384385
0003d0 9a 80 9f bd 48 6c 93 be 56 e1 46 be 35 2d 54 3e
       -0.07788201 -0.2879355 -0.19421896 0.2072037
0003e0 74 de 3e bd 16 89 a6 3e 9d 7b 6c bd 8f 7f 8b be
       -0.046598867 0.32526463 -0.057735074 -0.27245757
0003f0 90 e5 77 bd 18 96 35 be f4 0a d3 bd 76 dd b5 be
       -0.060521662 -0.17733037 -0.103048235 -0.35520524

linear1.bias f4 [50]
000000 8d 52 1b 3d 50 a7 ae bd 83 59 d0 bd bb db 5c be
       0.037920523 -0.08528006 -0.10173323 -0.21568196
000010 c1 b1 a7 be e2 8a be 3e 1e 68 4e be 09 e0 ab 3d
       -0.32752803 0.37215334 -0.20156905 0.08392341
000020 ed ac bf bd df f3 42 ba 89 07 c0 3e 12 c7 19 3e
       -0.09359155 -0.00074368523 0.3750575 0.15017346
000030 9b e8 b5 be 82 83 21 3e 35 04 cf 3e 03 c4 9d 3d
       -0.35529026 0.15772822 0.40432897 0.07703402
000040 85 c7 a1 3e 75 8c cb 3e b8 74 95 bd ce 95 d0 3d
       0.31597534 0.39755598 -0.07297653 0.10184823
000050 81 17 b2 be fd 19 79 bd 27 51 82 3e 9a 4f 82 3e
       -0.34783557 -0.0608158 0.2545254 0.25451356
000060 b9 6c 88 be 4c 9c 98 be 0f 99 5e be 21 63 b6 be
       -0.2664545 -0.29806745 -0.21738075 -0.35622504
000070 a6 e9 a2 be b2 a0 a1 bd b7 c1 8f 3e c0 be f9 3d
       -0.31818885 -0.07891978 0.2807748 0.12194586
000080 c7 82 8e be bd 74 a3 be be 6b 6b 3e c0 21 88 be
       -0.2783415 -0.31925002 0.22990319 -0.2658825
000090 cf 53 ae bd be fa 66 3e 00 c0 3c be e2 5d 00 bd
       -0.08512079 0.22556588 -0.18432617 -0.031339534
0000a0 50 fb 96 3a e3 2e d4 bd bd 20 5a be bd 98 c4 be
       0.0011518989 -0.103605054 -0.21301551 -0.3839778
0000b0 e0 51 b1 be ea f4 7e be 57 5a dc 3e 0f d3 76 be
       -0.34632778 -0.24898115 0.43037674 -0.2410395
0000c0 32 86 85 be 31 4c f3 3d
       -0.26078945 0.11879767

lin_bn1.weight f4 [50]
000000 91 9d 81 3f 82 00 85 3f 0a 40 82 3f 3d d6 7e 3f
       1.012621 1.039078 1.0175793 0.9954565
000010 1c f9 73 3f a2 45 7e 3f 8e e8 7e 3f d0 dd 80 3f
       0.95301986 0.99325 0.995736 1.0067692
000020 bd 2b 78 3f 40 6b 82 3f 84 a6 76 3f 0a 25 81 3f
       0.9694174 1.018898 0.9634783 1.0089428
000030 49 d0 7b 3f e6 43 86 3f 8d bf 80 3f 52 21 83 3f
       0.9836469 1.0489471 1.0058457 1.0244544
000040 1e 28 7f 3f e0 a3 7c 3f a7 4a 80 3f a0 23 71 3f
       0.9967059 0.98687553 1.0022782 0.94194984
000050 d8 00 77 3f 62 a6 80 3f f5 33 7d 3f de c8 77 3f
       0.9648566 1.0050776 0.98907405 0.96790874
000060 94 88 80 3f f5 a7 81 3f 70 ab 76 3f 3b 6d 81 3f
       1.004168 1.0129381 0.9635534 1.011146
000070 e0 5b 7e 3f 79 f6 83 3f 5a b9 76 3f 20 14 89 3f
       0.9935894 1.0309592 0.96376574 1.0709267
000080 01 57 84 3f 50 1d 7b 3f 45 b9 7f 3f 5c 65 81 3f
       1.0339051 0.980916 0.99892074 1.0109057
000090 85 fb 78 3f d2 08 7b 3f 16 76 7d 3f 37 2b 70 3f
       0.9725879 0.98060334 0.9900831 0.9381594
0000a0 52 43 84 3f 18 2c 7d 3f 7e 33 7f 3f e1 a5 7b 3f
       1.0333045 0.98895407 0.99687946 0.98299986
0000b0 ca be 83 3f a6 f8 81 3f 87 f8 7f 3f b2 7f 7f 3f
       1.0292599 1.0154006 0.999886 0.9980422
0000c0 b5 f5 7d 3f aa e2 82 3f
       0.99203044 1.0225422

lin_bn1.bias f4 [50]
000000 59 47 8f bd f9 08 f5 3d f9 9c 65 3b dd 1f c9 3c
       -0.0699603 0.11964602 0.003503619 0.024551326
000010 a8 2b 7f 3d 65 ac cc bd 14 c5 74 bd c8 52 0d 3c
       0.062297493 -0.09993819 -0.05975826 0.008625694
000020 e9 83 e4 bc 72 22 cd bc 66 4f 49 3e d2 6a 1c 3e
       -0.02789493 -0.025040839 0.19659194 0.15275124
000030 7b 13 dd 3c 78 0a ee 3b fa b1 2e 3d 0a 74 cd bd
       0.026986828 0.0072644316 0.0426502 -0.10031898
000040 09 a7 39 bc ed 7e 91 bc 1e 97 51 3d 82 77 88 3c
       -0.011331328 -0.017760718 0.051169507 0.016658548
000050 b5 98 20 3c ad 09 b1 bd 59 33 2a 3d aa 11 4a be
       0.009802033 -0.08644424 0.041552875 -0.19733301
000060 21 f8 e7 3c b7 f9 04 be 54 c9 c2 bc 12 b4 5a bc
       0.02831656 -0.12985884 -0.023777641 -0.013348596
000070 a6 f2 61 3d b4 7b 0d 3e a1 3c 9e bd 4e 39 76 3b
       0.05516305 0.1381672 -0.07726408 0.0037570777
000080 20 cb 22 3e 92 13 cb 3d 6a 0f bf 3c e9 70 f8 3d
       0.15897799 0.09915842 0.02332278 0.12130911
000090 86 4a 99 bd 83 b0 c8 bc f7 8a b1 bd e3 95 ae 3d
       -0.07484917 -0.02449823 -0.086690836 0.085246824
0000a0 b6 03 d6 3c 87 df 1f be 5e 2b ac 3d 07 fe 7a bd
       0.026124816 -0.15612613 0.08406709 -0.061277416
0000b0 d4 c4 14 bd 34 bd 1b bd c4 e1 a4 3d 38 c9 d9 3c
       -0.036320522 -0.038022235 0.08050874 0.026585206
0000c0 3e ec 24 bd 5e 23 0d 3e
       -0.04026436 0.13783023

lin_bn1.running_mean f4 [50]
000000 50 f0 19 3d 19 53 ae bd 90 18 d0 bd 64 47 5c be
       0.037582695 -0.08511943 -0.10160935 -0.21511608
000010 37 bb a7 be fd 0f be 3e 89 0d 4e be 30 32 ae 3d
       -0.3276002 0.37121573 -0.20122351 0.08505666
000020 e8 25 c1 bd 28 3e 45 ba 39 30 c0 3e d5 46 1b 3e
       -0.09431058 -0.00075242156 0.3753679 0.15163739
000030 ff e0 b5 be 1f 95 23 3e cb df ce 3e e9 72 9d 3d
       -0.3552322 0.15974854 0.40405115 0.07687933
000040 58 4a a1 3e 83 37 cb 3e f5 41 94 bd 7c 5c d0 3d
       0.31502032 0.3969079 -0.07239143 0.1017389
000050 1e 45 b1 be da af 76 bd 1e c3 82 3e 38 27 82 3e
       -0.34623045 -0.0602263 0.25539488 0.25420547
000060 3f 58 88 be 9a e3 98 be 86 64 60 be 0c 31 b7 be
       -0.26629826 -0.29861146 -0.21913347 -0.35779607
000070 6d 43 a2 be 9f a6 a1 bd 37 11 8f 3e a9 c8 fb 3d
       -0.31692067 -0.078931086 0.2794282 0.12294132
000080 40 8c 8e be 2f f1 a3 be a3 d6 6a 3e f2 2a 88 be
       -0.27841377 -0.32019946 0.2293344 -0.26595265
000090 81 5b ac bd 2c c9 66 3e 49 69 3c be 8a 2d f1 bc
       -0.084158905 0.22537678 -0.18399538 -0.02944066
0000a0 a4 3d b8 39 50 70 d2 bd 56 e0 5a be 9d f7 c4 be
       0.0003514114 -0.10275328 -0.2137464 -0.38470164
0000b0 30 ea b0 be 3f 4a 7e be 20 fa db 3e 9f ab 76 be
       -0.3455367 -0.2483301 0.42964268 -0.24088906
0000c0 e6 78 85 be 89 5b f5 3d
       -0.260688 0.119803496

lin_bn1.running_var f4 [50]
000000 6e a5 26 3f 63 1e d4 3d 2e e4 3a 3f 64 94 fd 3e
       0.65096176 0.10357358 0.73004425 0.49527276
000010 75 93 0d 3f 52 3a 69 3d fc 1e da 3e 30 d4 2c 3f
       0.55303127 0.056940384 0.42601764 0.6751127
000020 58 18 e9 3f a7 2b b1 3f a7 8d 6a 3c 47 c0 7b 3d
       1.8210554 1.3841447 0.014315999 0.061462667
000030 a7 8f c1 3f d3 61 1f 3e b0 1a b3 3d 49 bd b0 3e
       1.5121964 0.1556466 0.087453246 0.34519413
000040 c8 b2 08 3f 94 62 26 3f 4d 74 32 3e 78 7a 97 3e
       0.533978 0.6499417 0.17427178 0.29585624
000050 f3 37 9f 3d 9b be 85 3c 75 9b 46 3e c1 d8 be 3e
       0.07774343 0.01632624 0.1939524 0.37274745
000060 95 af cc 3f 30 cf 5b 3e d1 c5 21 3f 8f 3f d9 3e
       1.5991083 0.21465755 0.6319247 0.42431304
000070 6a a5 2c 3d 81 d6 1f 3e 30 f2 91 3d fc 91 49 3d
       0.04214994 0.1560917 0.07126272 0.049211487
000080 ae eb 12 3e 45 5f 97 3d c6 51 b9 3f 43 9a 0d 3f
       0.14347717 0.07391218 1.447808 0.5531351
000090 86 31 7f 3e ef 68 9a 3d ed 78 15 3f f5 e7 0f 3e
       0.24921235 0.07539546 0.58387643 0.14053328
0000a0 18 13 11 3e 8c d8 4b 3e 71 64 0c 3e 21 aa 8c 3f
       0.1416744 0.19906825 0.1371019 1.0989419
0000b0 de 17 48 3f a8 bb 90 3f 6c 4c 48 3e 86 df 80 3f
       0.7816142 1.1307268 0.19560403 1.0068214
0000c0 a9 89 3b 3e 0a dc f2 3e
       0.18314232 0.474335

linear2.weight f4 [12, 50]
000000 00 fa 87 3a 1f 38 4a 3d 6d 43 8e 3d 67 ae e2 3d
       0.0010374188 0.049369927 0.06946454 0.11068421
000010 e5 ca e3 bd 94 13 36 3d b5 01 3b 3d e7 96 50 bd
       -0.111226834 0.044452265 0.045655925 -0.05092516
000020 09 e7 74 bd ee 23 bf 3d 92 4a 48 3a e5 3e 39 bd
       -0.059790645 0.09333025 0.00076405064 -0.045225997
000030 11 03 e1 bd a2 5a 15 bd 3a 2b db 3d 2f aa 48 bc
       -0.10986913 -0.036463387 0.10701604 -0.012247606
000040 b4 c2 3a 3d 1f e7 99 bd 75 a6 02 be d9 4a e3 3c
       0.04559584 -0.07514786 -0.12758811 0.027745651
000050 db 05 1d 3e 4e 75 c1 3d f2 97 4b bd cd 60 83 bd
       0.15334265 0.09446202 -0.049705453 -0.06414948
000060 69 14 14 be 47 2b ef bd 3c e7 1b bc f1 cf f0 3d
       -0.14460911 -0.116781764 -0.00951558 0.11758412
000070 94 b4 ee 3d c7 e4 01 be 0b f2 ab 3d 38 e6 19 be
       0.11655536 -0.12684928 0.083957754 -0.15029228
000080 21 e6 6e 3c 2d e5 16 3e 7b 61 9c 3c d3 ca 29 3e
       0.014581234 0.14735861 0.019089451 0.16581278
000090 83 f0 9b bd 73 d9 8f bc 87 5e f9 3d 75 69 f5 bb
       -0.07614233 -0.017559743 0.12176233 -0.007489378
0000a0 d9 60 37 bc 45 c1 d0 bd 2c 31 f8 3d c9 c0 ef 3c
       -0.011192524 -0.10193113 0.12118754 0.029266732
0000b0 21 a7 f0 3a 59 97 f3 bd c8 08 b9 bd 09 2c 3e 3d
       0.0018360355 -0.11894102 -0.09034878 0.046428714
0000c0 9a 17 42 3d d2 8e 42 bd bd db 1c bc 20 6f fb 3d
       0.04738579 -0.047499485 -0.009573874 0.12277055
0000d0 1a 8a 2f 3d b7 74 60 bc f4 5a 5e bd eb 35 b5 bd
       0.042856313 -0.013699702 -0.05428596 -0.08848175
0000e0 0e 78 d6 bd ea ef 1a bd ee 6d b7 bd b4 d3 98 3d
       -0.10472117 -0.037826456 -0.08956514 0.07462254
0000f0 f8 e5 13 3c 4c 20 b7 bd 03 c0 ee 3d b4 2d 9e 3d
       0.009026997 -0.08941707 0.11657717 0.07723561
000100 50 fa 92 3d 56 fe 0e bd 7b 49 93 bd 1d 8f 44 3d
       0.071766496 -0.034910522 -0.0719175 0.047988046
000110 f8 e3 a0 bd 20 13 e2 bd 0c 46 4b bd a2 2e 14 bd
       -0.078559816 -0.11038804 -0.04962735 -0.036177285
000120 2a 90 f5 bd f3 70 dd 3d 67 a1 13 3e 7a ad 84 3d
       -0.11990388 0.10812559 0.14417039 0.064784005
000130 df 49 64 3b fd 12 1e be ad 22 b4 bc 0a 24 42 3d
       0.003483407 -0.15436931 -0.021989191 0.04739765
000140 0e 74 b8 3d 5c 2c 54 3c 72 68 01 bd 4d 59 78 3d
       0.09006511 0.012950029 -0.031593747 0.06063204
000150 14 66 04 be cc 6c 52 3d 14 49 9f bd 05 d9 ca bc
       -0.12929565 0.051373288 -0.077776104 -0.024761686
000160 e9 51 54 bd 77 82 82 3c 80 e5 81 bd 65 f8 da 3d
       -0.051835928 0.015931351 -0.06342602 0.10691909
000170 83 24 ce bc 3e b1 0e 3e 6a 6f 28 3e aa c0 0d bd
       -0.025163895 0.139348 0.16448751 -0.034607567
000180 13 d6 fb bd d7 26 c6 3d 23 b2 be 3d 9e 07 e2 bd
       -0.12296691 0.09675377 0.09311321 -0.11036609
000190 2d af 23 bd 09 5a 57 be 77 42 1c be 4b f3 18 bc
       -0.039961983 -0.2103044 -0.1525973 -0.009335349
0001a0 62 2b e6 3c 4a 52 82 bb d7 a3 8d bd 81 52 bd 3d
       0.028096858 -0.003977095 -0.069160156 0.09244252
0001b0 e4 7d d5 bc 55 7a db bd e9 af 6d bc d8 9b 4b 3c
       -0.026061006 -0.10716692 -0.014507272 0.012427293
0001c0 90 a7 0c ba 7a 7c 00 be fd 32 b6 3c 92 42 b0 bd
       -0.0005365545 -0.12547484 0.02224111 -0.08606447
0001d0 34 22 28 be 82 dd d7 bd e7 30 0d 3e 98 05 cc 3d
       -0.16419297 -0.10540296 0.13788186 0.099620044
0001e0 e8 d8 f6 3d ee 8d 86 3d 3d 83 e3 3d f6 51 0a bd
       0.1205309 0.0657004 0.11109016 -0.03376957
0001f0 80 e5 e2 bd 9c 57 6f 3d e2 44 dc bd 8a 1f ff bd
       -0.1107893 0.05843316 -0.10755326 -0.124571875
000200 99 cb a4 bc 06 00 a7 bb 7a 97 24 3d d8 12 a9 bd
       -0.020116614 -0.0050964383 0.04018352 -0.08255547
000210 e7 ad 0d be 2b 8e b0 3a cd 72 0a be 17 24 f1 bd
       -0.1383587 0.0013470104 -0.13520356 -0.11774462
000220 55 4c 43 3d ad 59 61 bd 23 3c b8 3d b1 bb 15 3e
       0.047680218 -0.055017162 0.08995845 0.1462238
000230 6d ca 40 3d f3 8a 3e 3d fb d7 07 3d 0a 33 01 bd
       0.04706805 0.04651923 0.03316496 -0.031542815
000240 e3 3a c6 bc 2f f8 d7 bc 98 0f 2c 3d 00 72 b3 3d
       -0.024198001 -0.02636346 0.04200706 0.08761978
000250 8f 70 b6 bc dc a2 86 bd 47 59 b4 bd be 0f e5 bd
       -0.022270469 -0.06574032 -0.08806091 -0.11184643
000260 1d dd ef bc 8c d2 ce 3d 1b 61 ce 3d 9a 28 80 3d
       -0.02928024 0.100987524 0.10077115 0.06257744
000270 b4 df 1d be 9b 59 04 be 7c 24 f2 bc 22 79 98 bd
       -0.15417367 -0.12924807 -0.029558413 -0.07444979
000280 47 1a fa 3c 3f fe 08 be 85 c2 42 3d 0e 63 10 be
       0.030530108 -0.13378237 0.04754879 -0.14100286
000290 63 a2 c2 bd 23 6f 23 be 5d 07 fe 3d 39 b4 ef bd
       -0.09503629 -0.15960364 0.12403748 -0.117042966
0002a0 cf 39 00 3e dd 1e 76 bc 94 16 09 bd e0 85 94 3d
       0.12522052 -0.015022007 -0.033468798 0.07252097
0002b0 a9 ca 6a bc 96 8d 32 3d 3c ec 60 3d 95 26 07 be
       -0.0143305445 0.043592058 0.05491279 -0.13198312
0002c0 81 a1 5c 3b d5 d0 9e 3c cf 61 09 3d bb 0e 9b 3d
       0.00336656 0.019386688 0.033540543 0.07571169
0002d0 09 6a 6d bb 5b 5c 60 bd ef a7 83 bd df 48 ff 3d
       -0.0036226532 -0.054775577 -0.06428515 0.12465071
0002e0 cb 33 cb 3d 82 76 46 bc c1 55 0f be aa 4e c6 ba
       0.09921988 -0.012113215 -0.13997556 -0.0015129645
0002f0 3d 28 d0 bd e9 00 07 3e c8 7b c3 bd 14 7b 41 bb
       -0.10163925 0.13183941 -0.09545094 -0.0029522823
000300 b1 93 3f bd ca 6a c5 bc 02 b2 c9 3d 12 1b 21 bd
       -0.04677171 -0.024098773 0.098484054 -0.039332457
000310 33 0b 8c 3d 45 97 e0 3d 3f 94 cd 3d 68 61 31 bd
       0.068380736 0.109663524 0.10038041 -0.043305784
000320 d1 1d 29 bd 44 50 6c 3d fa aa 54 bd 6a 05 a2 3d
       -0.0412882 0.057693735 -0.05192087 0.07911189
000330 55 80 b0 3c 8f e6 c3 bd 16 ef 0f 3d ff 56 e6 3b
       0.021545568 -0.0956546 0.03514012 0.0070294137
000340 d6 4c ab 3d 3d 41 e4 3d 95 20 a0 3d ab 5c 0a 3e
       0.08364265 0.11145256 0.078187145 0.13511913
000350 75 97 15 3d d4 c5 23 be a3 27 a9 bd f4 a8 f1 bd
       0.036521394 -0.15993434 -0.08259513 -0.117998034
000360 49 a0 c4 bd 45 1d 3a bc 7b a0 23 be f4 69 a4 bd
       -0.096008845 -0.011359517 -0.15979187 -0.080280215
000370 a5 eb 35 bd 70 c8 16 be 5e 29 1a bd d2 1b d8 3c
       -0.04441418 -0.14724898 -0.037637107 0.026380453
000380 0e 9a b8 3d 2a c0 00 be 6e a4 57 bd 15 73 b1 3d
       0.090137586 -0.12573305 -0.052647047 0.08664528
000390 c5 ef ea bd b1 a9 1c be f8 e0 94 3d 01 b7 5a be
       -0.11471514 -0.15299107 0.07269472 -0.21358873
0003a0 db 67 d8 3a 82 0c f1 3d 71 c8 5f 3d 08 71 32 3d
       0.0016510444 0.11769964 0.054634515 0.043564826
0003b0 e0 3e 8c bd 09 a5 da b9 64 37 ab 3c 8a 1d 3b 3c
       -0.0684793 -0.0004170316 0.020900436 0.011420617
0003c0 c9 d8 d7 3d 04 e6 3e 3d 9a 6e 73 bd 48 83 93 bc
       0.10539395 0.04660608 -0.05943165 -0.018006936
0003d0 36 d2 d4 bd fd 4d 09 be da 56 43 3d 39 e0 d9 bd
       -0.10391657 -0.13408656 0.04769025 -0.1063847
0003e0 14 20 04 3e eb b4 8a 3d d5 ec e2 bd 60 0e fd 3c
       0.12902862 0.067727886 -0.110803284 0.030890644
0003f0 27 83 28 be 02 da 5b bd 43 d7 30 bc 62 63 f2 bd
       -0.1645628 -0.053674705 -0.01079351 -0.11835362

linear2.bias f4 [12]
000000 b9 63 b4 bd 8b 55 bd bd a6 c5 59 3e 4c 21 33 3d
       -0.08808083 -0.09244832 0.21266803 0.043732926
000010 ac 13 f4 3d e4 f1 11 be 15 ee a1 bd 32 da a7 bd
       0.119178146 -0.1425243 -0.07906739 -0.08195914
000020 80 cd c2 3d 79 63 98 bb ad 38 3d bd 3f 77 06 3c
       0.09511852 -0.00465053 -0.04619663 0.008207141

lin_bn2.weight f4 [12]
000000 5d 6f 7d 3f c5 a1 76 3f 90 d7 7c 3f 29 37 75 3f
       0.9899805 0.9634059 0.9876642 0.9578729
000010 53 a8 81 3f 69 79 73 3f b9 5d 8f 3f b7 ce 89 3f
       1.0129493 0.9510713 1.1200477 1.0766209
000020 ff d6 7e 3f ca 3d 81 3f 58 b5 85 3f 4d 20 79 3f
       0.9954681 1.0096982 1.0445967 0.9731491

lin_bn2.bias f4 [12]
000000 a9 c6 9a 3c 97 03 3a bd f5 7b 9e bb a6 02 56 3d
       0.018893557 -0.04541358 -0.004836554 0.05224862
000010 18 a4 ab 3c ea 75 5e 3c 99 f2 32 be 82 7f 14 3e
       0.02095227 0.013577918 -0.17475356 0.14501765
000020 ad 3d 95 bd de aa 4c 3d be 59 7b bd c8 07 ab bb
       -0.07287154 0.04996764 -0.06136488 -0.0052194335

lin_bn2.running_mean f4 [12]
000000 fd cd 76 bd a4 00 fa bd 42 d2 6c be 64 ac 2b be
       -0.06025504 -0.122071534 -0.23127082 -0.1676498
000010 8e f7 f4 bd 22 dd 2a bf 1f 13 b6 3e 7e 97 22 be
       -0.1196128 -0.6674367 0.35561463 -0.15878102
000020 19 20 20 3e cb 45 97 be 50 8b 2b 3f bc c2 67 3e
       0.15637244 -0.29545435 0.6700945 0.22632879

lin_bn2.running_var f4 [12]
000000 72 44 bd 3e 7e ac 13 3f b1 0f 18 3f 96 7b de 3e
       0.36966282 0.5768508 0.59398943 0.43453664
000010 e5 c0 e7 3e 23 55 02 3f 07 24 08 3e e9 5c a5 3e
       0.45264354 0.5091116 0.13294993 0.32297447
000020 df ec 87 3e cb d4 58 3f fe 7e eb 3e ff 17 9d 3e
       0.26547906 0.84699696 0.45995325 0.3068237

linear3.weight f4 [12, 12]
000000 c2 02 64 be f8 a6 17 3c 24 bd fe bd 3f fe 34 3e
       -0.22266677 0.009256117 -0.124384195 0.17675112
000010 cc 29 91 3b 75 0a c9 bd 59 26 e2 3d 48 6f 07 be
       0.0044300314 -0.09816448 0.110424705 -0.13226044
000020 bb 3c 51 3e 9e d7 d4 3c 2b 7f ca 3d 13 64 07 be
       0.20433323 0.02598172 0.098875366 -0.13221769
000030 8b a7 76 3e d4 89 e2 bd 4e 87 c8 bd b9 6b 42 3e
       0.2408735 -0.11061445 -0.09791432 0.18986405
000040 97 cd 47 3e 55 52 5e 3e 39 ee d3 3d ff a4 dd bd
       0.1951202 0.21711095 0.10348172 -0.10822486
000050 6d 27 57 3d 24 2e 8c 3e 50 69 ad be 44 9e d8 3c
       0.052527834 0.27378953 -0.3386941 0.026442654
000060 35 b1 5b bc 20 5b 9f 3c 6d cd 7b 3d 13 75 1a bd
       -0.013408949 0.019452631 0.061475206 -0.037709307
000070 dd f4 9f 3d 00 ad ca 3d ce 7a 36 be 34 d4 b2 be
       0.07810376 0.098962784 -0.17820284 -0.34927523
000080 9d 37 2d 3e 33 1a 0e bd cc 58 5d bc 32 6d ce 3d
       0.16915746 -0.034692954 -0.01350994 0.10079421
000090 91 8b 05 bd 19 43 0a be cf 3c e0 3c 0a 29 4c be
       -0.032603804 -0.13502158 0.027372746 -0.1993753
0000a0 28 49 1f be d9 1d 15 bd fa 05 41 be 1e ff 81 be
       -0.1555525 -0.036405418 -0.18849936 -0.2538995
0000b0 b4 51 15 3d b0 65 1d be 2f 5a 58 3c dd 1f a1 bd
       0.03645487 -0.15370822 0.013205095 -0.078674056
0000c0 6e 57 4a 3e d4 52 95 be d4 4f da bd 5b a9 0a 3e
       0.19759914 -0.29164755 -0.10659757 0.13541166
0000d0 75 0a 17 be 9a 24 89 3c 5f 9f 3a bd c6 b7 f5 3d
       -0.14750083 0.016741086 -0.045562144 0.119979426
0000e0 e9 19 e0 3d 51 96 45 3e 0f b1 75 be e5 15 83 3d
       0.10942442 0.19295622 -0.23993324 0.064006604
0000f0 2d 91 8b be c4 4d c4 bd 3a 1b d3 3d cf 14 b2 bd
       -0.27259198 -0.09585145 0.103079274 -0.08695375
000100 32 b2 f4 3d 8d 6a 68 be a6 22 35 3e 7b 65 4b be
       0.119480506 -0.22696896 0.17688999 -0.1986293
000110 13 9b 52 3e f2 d8 1a be c8 69 2b 3d b2 9f 3a be
       0.20566969 -0.1512182 0.041848928 -0.18224981
000120 d9 8a 02 bd 1f d7 70 3e 45 da eb 3d 92 9c 31 be
       -0.031870697 0.23519562 0.11516241 -0.17344883
000130 48 16 03 bc f2 8c a1 bd 95 4e af be 09 12 32 3e
       -0.008000918 -0.07888211 -0.3423964 0.17389692
000140 38 32 dc bc ae 13 72 3d ec 90 3c be 62 bc 05 be
       -0.026879415 0.0591008 -0.18414658 -0.13060144
000150 3c 56 26 3c 6d 37 89 3d dd 82 d6 3d e6 ea bf bd
       0.010152396 0.06700025 0.10474179 -0.09370975
000160 50 8b 8b 3e cf a6 cd 3c fb 30 8c be 1a 0e d2 bd
       0.27254725 0.025103955 -0.2738112 -0.10256596
000170 4d 91 81 3e 6a 31 c7 3c 18 73 4d bd c8 4e 21 be
       0.25306168 0.024315555 -0.05015859 -0.15752709
000180 50 09 f0 bd 71 17 83 be a1 3a 87 be 78 45 da 3d
       -0.11720526 -0.25603822 -0.26411918 0.10657781
000190 be ca a3 3e c4 89 7f 3e 89 5a 56 be 5a 76 03 3e
       0.31990618 0.24954897 -0.20932974 0.12838116
0001a0 38 a2 65 be e1 10 08 3e 33 a2 57 3e db b5 4f 3e
       -0.22425163 0.13287689 0.21057968 0.20284216
0001b0 3b d1 3e 3e 78 dc 2d 3e 51 f6 66 bc 05 6a d1 3d
       0.18634503 0.16978633 -0.014096812 0.102253
0001c0 5d 46 1e be 3e 66 fa 3d 9e 03 d2 bd b2 79 aa bd
       -0.15456529 0.122265324 -0.10254596 -0.08323993
0001d0 40 a0 79 be de 3e ef bd c2 c4 20 be 79 fe b6 bd
       -0.24377537 -0.11681913 -0.15700057 -0.089352556
0001e0 36 fe 44 be 4a 69 c1 be 77 14 5d 3d 70 3b 4f 3e
       -0.19237599 -0.37775642 0.053974595 0.20237517
0001f0 2c 97 3c 3e 08 da 80 3d 0e 41 de bd 2c 8b 9f be
       0.18417042 0.06291586 -0.10852252 -0.31160867
000200 3c d3 3b 3d 06 79 15 3e b7 67 ba be ea 0c e9 3d
       0.045855746 0.14596948 -0.36407253 0.11379416
000210 4c 89 14 3e 8d c4 bc bd 36 38 41 be 3f bd 2c 3e
       0.145055 -0.092171766 -0.18869099 0.16869067
000220 e0 c8 27 3e de 94 3f 3e d7 06 88 be 1a 70 ef 3d
       0.16385221 0.18709132 -0.26567718 0.116913036
000230 7f c5 a1 be cb 0d 83 3e 70 74 6a be 37 a7 f3 3d
       -0.3159599 0.2559646 -0.2289598 0.11897128

linear3.bias f4 [12]
000000 fc c4 c1 3c 8c d1 be 3c 05 e9 82 bc 86 ea d9 3d
       0.0236535 0.02329328 -0.015980253 0.10640435
000010 65 59 27 be 9c 76 67 be 9e 0c 06 be 40 08 86 3e
       -0.16342695 -0.2260384 -0.1309075 0.2617817
000020 26 36 a9 bc 6b d6 68 3d 36 88 db bd fb 86 69 3e
       -0.020655703 0.05684511 -0.107193395 0.22805397

lin_bn3.weight f4 [12]
000000 33 ee 8f 3f f7 e5 80 3f fa d4 85 3f 34 02 80 3f
       1.1244568 1.007018 1.045562 1.0000672
000010 80 bb 84 3f 9f 6a 6d 3f 3d 34 82 3f ad ac 89 3f
       1.036972 0.92740816 1.0172192 1.0755821
000020 fa 14 77 3f 20 02 6e 3f 95 1c 74 3f 84 b8 80 3f
       0.9651638 0.9297199 0.9535611 1.005631

lin_bn3.bias f4 [12]
000000 12 c5 ce 3d e0 c8 e3 3d f6 85 c9 3c 54 06 5b 3d
       0.10096182 0.11122298 0.02460001 0.05347283
000010 97 80 56 3d ee 81 93 bd 41 87 08 3e 9b 0a a6 3e
       0.052368727 -0.072025165 0.13332845 0.32429966
000020 2e da cf 3c 80 19 0b 3d 95 ef d8 3a f5 05 1b 3e
       0.02537259 0.033959866 0.0016550893 0.15138991

lin_bn3.running_mean f4 [12]
000000 fd 6f 80 bc 9c 5d 8f 3e 17 cc d9 bd ac 75 ca be
       -0.0156784 0.28001106 -0.1063463 -0.39542902
000010 cf 08 10 be 8c 1c f5 be 88 f0 71 be 76 5d 99 3e
       -0.1406586 -0.47873342 -0.23626912 0.29954118
000020 40 d5 16 3e 17 85 e7 bd a9 cb a9 be 74 45 a1 3e
       0.14729786 -0.11304682 -0.33163193 0.314983

lin_bn3.running_var f4 [12]
000000 3e 21 10 3e 50 c3 a8 3e 4d 1e 1d 3d 4e 8f dd 3d
       0.14075181 0.32961512 0.038358975 0.10818349
000010 2a c6 5e 3e 40 25 2b 3e 47 93 3e 3e a5 1a e8 3d
       0.21755281 0.16713428 0.1861087 0.11333207
000020 85 2a 53 3e 01 5e 56 3d 54 f1 ad 3e 63 e5 18 3f
       0.20621689 0.052335743 0.3397318 0.59725016

fc1.weight f4 [4, 12]
000000 51 e8 c0 3d 0a 06 19 3e d8 19 32 be d9 41 40 be
       0.09419311 0.1494371 -0.17392671 -0.18775119
000010 dc e8 08 3d b0 e1 8a be 99 c0 47 3e 59 ec ae be
       0.033425197 -0.2712531 0.19507064 -0.34164694
000020 54 e6 c7 3d f7 ca 78 3e f1 2d 29 3e df 7e de 3d
       0.097607285 0.24296175 0.16521432 0.108640425
000030 4c 44 bb be 4e 7d 7f 3e 7f 4d 9a be bc e4 82 be
       -0.36575544 0.24950144 -0.3013725 -0.25565135
000040 e1 61 8f 3e 76 32 56 be 15 8c 99 3b 40 69 11 bb
       0.28004363 -0.20917687 0.0046858885 -0.0022187978
000050 b4 09 5d be ff a7 c1 bd 9b 0c d6 3d 71 3f 17 bd
       -0.21585733 -0.09455871 0.10451623 -0.036925737
000060 52 c2 6d 3e da 29 73 be 28 8d 42 3d 12 a6 a3 bd
       0.23218659 -0.23746434 0.0474979 -0.0799066
000070 43 e0 b4 bd b6 db e8 bd 73 fa a1 3e 64 63 1a 3e
       -0.08831837 -0.113700315 0.3163639 0.15076977
000080 ff d8 46 be d2 97 fd 3d 2a f5 c0 3d 65 5c 98 3d
       -0.19418715 0.12382473 0.09421761 0.07439498
000090 a2 e8 8d be c3 ef 12 3c 7c b0 7c 3e d3 ec 98 3e
       -0.27716547 0.008968296 0.24676698 0.29868183
0000a0 30 e9 59 be 19 c2 55 3d d1 69 c3 3a 4c b5 60 3e
       -0.2128036 0.05218706 0.0014908855 0.2194416
0000b0 af 62 88 3e 4b e8 54 3e 6d c0 89 bd 22 e2 87 3e
       0.2663779 0.20791738 -0.067261554 0.26539713

fc1.bias f4 [4]
000000 49 7d 81 be 41 d2 1a 3d 8d 10 47 be c0 dd 30 bd
       -0.25290897 0.03779817 -0.19439907 -0.043180227

bn1.weight f4 [4]
000000 3a 64 97 3f 45 c4 98 3f de b9 a0 3f 1f e8 91 3f
       1.1827462 1.1934897 1.2556722 1.1398963

bn1.bias f4 [4]
000000 f2 e2 66 3e 4c 33 46 3e 3b cd ab 3e e2 42 95 3e
       0.2254751 0.19355506 0.33555016 0.2915259

bn1.running_mean f4 [4]
000000 03 b6 81 be c3 b3 a5 be 0e cc 21 bd 94 97 d7 3e
       -0.25334176 -0.3236371 -0.039501242 0.42107832

bn1.running_var f4 [4]
000000 32 03 88 3e 9c 47 2c 3f 27 2b f1 3d 67 e0 b8 3d
       0.26564938 0.6729677 0.11775809 0.09027176

fc21.weight f4 [4, 4]
000000 ff 77 fb bd 3d e3 bc bd 9c 2a 03 be b1 05 b9 bd
       -0.12278747 -0.0922303 -0.12809223 -0.09034289
000010 b4 32 5f 3f 93 59 29 3f a3 92 b7 be 86 fc d5 3e
       0.8718674 0.66152304 -0.35854062 0.41794223
000020 cf d3 82 3e 01 87 ac bd 1e af c2 3d 81 a4 95 3d
       0.25552222 -0.084241875 0.09506057 0.07306767
000030 8f 30 af be e9 23 9e bd d1 9b 7d be e9 10 34 be
       -0.34216735 -0.07721693 -0.2476647 -0.17584576

fc21.bias f4 [4]
000000 97 6e 92 3e 38 48 7b bf 56 83 67 be c9 fb 0e 3f
       0.28599998 -0.9815707 -0.22608694 0.55852944

fc22.weight f4 [4, 4]
000000 80 44 6c be 1e 18 43 3e 68 7e 2d bc 77 a0 74 bc
       -0.23073006 0.19052169 -0.01058922 -0.014930836
000010 2f 36 fe be 86 d7 e7 be f8 4d 67 bf 27 96 61 bf
       -0.49650714 -0.4528162 -0.90353346 -0.8811974
000020 75 0e 0a be 51 a8 0a be ad 6a 23 be 0a d1 e9 bd
       -0.13482077 -0.1354077 -0.15958662 -0.11416824
000030 d4 5f a8 be 14 e7 29 3e fe 08 ad bd fd 44 8b bd
       -0.3288561 0.16592056 -0.08448981 -0.06800268

fc22.bias f4 [4]
000000 08 13 32 3d f6 e3 26 bf 78 0f b8 3e 1d f3 55 3e
       0.04347518 -0.6519159 0.35949302 0.20893522

fc3.weight f4 [4, 4]
000000 34 24 38 3e b2 dc 20 bf df ac 63 3e df e4 dd 3e
       0.1798256 -0.62836754 0.22233914 0.43338677
000010 f6 12 81 bb f6 ec 29 3f 3c 6d 31 bb fe f9 e3 bb
       -0.003939028 0.663772 -0.0027073165 -0.0069572916
000020 b5 ff 00 bb 68 60 e6 be 28 fa ee 37 12 20 68 39
       -0.0019683663 -0.44995427 2.8488299e-05 0.00022137191
000030 4e bd 86 bd 1f 61 a8 be 98 96 53 3e 68 99 e4 be
       -0.06579076 -0.32886598 0.20662916 -0.4464829

fc3.bias f4 [4]
000000 82 e2 e2 3e 0c ea fc 3e 81 6e fd 3d 0a b3 a6 be
       0.44313437 0.49397314 0.123745926 -0.3255847

fc_bn3.weight f4 [4]
000000 33 c0 39 3f d9 8a 82 3f 3b 81 96 3f 8f 90 42 3f
       0.725589 1.0198623 1.1758188 0.7600183

fc_bn3.bias f4 [4]
000000 f7 95 7f bd a3 c1 ba 3e 83 8f d8 3c fb d6 7a 3e
       -0.062398877 0.36475858 0.02643562 0.24496071

fc_bn3.running_mean f4 [4]
000000 69 e9 e3 3e 8f f2 fe 3e de de fd 3d 4c e8 a9 be
       0.44514015 0.49794433 0.12396024 -0.3318504

fc_bn3.running_var f4 [4]
000000 f8 51 2b 3f 9c c9 dd 3e 77 b1 4b 3e 20 b2 b4 3e
       0.6692195 0.43317878 0.19891916 0.3529215

fc4.weight f4 [12, 4]
000000 0b ab ca 3d f3 45 db 3d e4 45 ac 3e f8 85 aa 3d
       0.09895905 0.10706701 0.33647072 0.08326334
000010 ca f0 5d 3e 60 6c d4 be ef b5 a6 3d 8b 37 6a 3d
       0.21673885 -0.41488934 0.0814017 0.057181876
000020 c5 13 64 3d 40 4e bb 3e 42 b6 97 be d2 04 d5 3c
       0.055682916 0.36583138 -0.2963124 0.026003275
000030 6d f2 14 3c 04 8c c5 bd dc 72 d9 3e 73 dc d5 bc
       0.009091002 -0.096458465 0.42470443 -0.026106095
000040 51 bf 21 be 39 7f 83 bd 4f ab dd be 0c 7b 09 bc
       -0.15795638 -0.0642075 -0.4329476 -0.008391153
000050 ee 5d 77 bd e4 78 07 bf f3 50 68 bd 49 07 15 3d
       -0.060392313 -0.5291884 -0.056717824 0.0363839
000060 33 79 2b be e4 a7 fc 3e 5a a0 48 be b3 9a 8b 3e
       -0.16745453 0.4934684 -0.1959242 0.27266464
000070 f6 4c c0 3d e1 64 c6 be bb f5 08 3e b3 dc e1 3e
       0.09389679 -0.3874884 0.13374989 0.44113693
000080 cf 17 67 be 9b c0 da be d2 04 02 3f 57 22 c7 3e
       -0.22567676 -0.4272507 0.50788605 0.38893387
000090 cc a0 41 be 30 e6 9d 3e d1 9d ae bd 68 b7 02 bf
       -0.18908995 0.30839682 -0.08526195 -0.51061106
0000a0 14 18 e0 bb a1 e9 79 3e 4f 26 fa bd de 42 46 3d
       -0.006838808 0.24405529 -0.12214338 0.048403613
0000b0 02 73 ad be 0f dc 02 3f 9b c2 b6 3e d5 46 67 3e
       -0.33876806 0.5111703 0.35695347 0.22585614

fc4.bias f4 [12]
000000 7d 54 63 3d d7 1f d3 3d a2 e7 ad be 1a 6f a6 bd
       0.055500496 0.10308807 -0.33965784 -0.0812666
000010 a3 43 9b bd 4c dc 48 be 92 70 c0 be dc 2e c7 3e
       -0.0758126 -0.19615287 -0.37585884 0.38902938
000020 5a 9c 9c 3e be 09 f2 be fa 89 40 3e d4 b1 3e 3e
       0.30588037 -0.47273058 0.18802634 0.18622524

fc_bn4.weight f4 [12]
000000 96 3b 75 3f 10 90 65 3f ed bc 80 3f 1a c8 8e 3f
       0.95794046 0.89672947 1.0057656 1.1154816
000010 b1 b7 69 3f ad 2a 9d 3f 76 c2 83 3f 27 92 56 3f
       0.91295916 1.2278649 1.029372 0.8381676
000020 39 5d 7c 3f 7f 0f 79 3f dc f1 8d 3f 6d c5 71 3f
       0.98579746 0.9728927 1.1089435 0.9444187

fc_bn4.bias f4 [12]
000000 93 a2 dc bd 75 65 15 bd fe a1 84 3d a6 5f 95 3d
       -0.10773196 -0.03647371 0.0647621 0.07293634
000010 7b 11 e9 3c 78 d4 78 3c 6a 16 cd 3c d0 14 63 bd
       0.028450718 0.015187375 0.025035102 -0.05543977
000020 f1 11 c9 bc 01 a2 82 3d 63 bb c3 3d af 98 fd bd
       -0.024544688 0.06378556 0.095572256 -0.12382638

fc_bn4.running_mean f4 [12]
000000 9a 41 b2 3e 0a 1f 12 bd b0 cb 69 be d3 0b 66 3d
       0.34815675 -0.035674132 -0.22831607 0.05616362
000010 18 86 be be 04 32 0e bf 8c 0c ac bd 56 85 dc 3e
       -0.3721168 -0.5554507 -0.084008306 0.43070477
000020 b9 c3 cc 3e 9c ff 17 bf 77 08 9b 3e 70 57 31 3f
       0.39993075 -0.59374404 0.30279896 0.69274044

fc_bn4.running_var f4 [12]
000000 43 02 7c 3d 1b 03 21 3e a9 6e 21 3e 2d 0b ee 3d
       0.061525594 0.15723841 0.1576487 0.11623225
000010 65 ed dd 3d d9 cf f2 3d a5 c5 47 3e 98 a9 84 3e
       0.10836295 0.1185605 0.19508989 0.2591064
000020 56 03 e5 3e 25 ce 6e 3e ec 38 4e 3d 05 16 d4 3d
       0.44729108 0.23320825 0.050347254 0.103557624

linear4.weight f4 [12, 12]
000000 f2 0f a7 3e eb 08 5c 3e d0 99 64 3e 1e e7 51 bd
       0.32629353 0.21487777 0.223243 -0.0512458
000010 bb 43 0f 3e 52 1d af 3e 0a 2e 82 be 6d 07 25 be
       0.13990681 0.34202057 -0.2542575 -0.16116114
000020 cb dd 34 3d a8 52 07 3e b3 de f7 bd 94 b7 9f bc
       0.04415683 0.13215125 -0.121030234 -0.019496717
000030 ba 85 ca bc 5b d3 c1 3c 5d 67 37 be 11 8f 46 3e
       -0.024721969 0.023660352 -0.17910524 0.19390513
000040 d3 72 26 3e 92 4f 7e be 13 64 18 bd dd d3 20 bd
       0.1625474 -0.24835041 -0.037204813 -0.03926455
000050 f3 91 eb 3d cd fc 70 3e cb 6e 10 3d 82 cd 3d 3c
       0.11502447 0.23533936 0.03526191 0.011584641
000060 27 9f 6d 3e 81 a8 0d be b6 a7 2c be 51 f6 15 3e
       0.23205243 -0.1383381 -0.16860852 0.14644744
000070 a0 19 46 be 46 ce 20 3e 4a 4c 0e be 55 b6 20 bd
       -0.19345713 0.15703687 -0.1389629 -0.039236385
000080 d2 b9 fb 3d 6f 14 20 bc 14 55 7e be c1 ea 06 be
       0.12291302 -0.009770497 -0.24837142 -0.13175489
000090 35 7a 76 3d 36 f1 38 3e 0f 24 52 be 76 38 7e 3d
       0.06017514 0.18060765 -0.20521568 0.062065564
0000a0 b8 d6 1e be f8 e7 a0 bd af aa a1 3e 1b cb fe 3d
       -0.15511596 -0.078567445 0.31575534 0.12441083
0000b0 56 56 85 be 3f e5 6b 3e b4 e5 54 3e 98 18 45 3d
       -0.26042432 0.23036669 0.2079075 0.048119158
0000c0 36 95 87 3e cc e1 f5 bd 13 fb a3 bd 5f 12 43 be
       0.26481026 -0.12005958 -0.08006873 -0.19049977
0000d0 79 9a 56 3b 23 fb 41 3d d4 9a d6 bd 92 a1 5e bd
       0.0032745881 0.047358643 -0.1047875 -0.054353304
0000e0 eb 82 bd bc 01 bc 86 3d e7 6f a7 be 39 7b e1 bd
       -0.023133716 0.06578828 -0.32702562 -0.11009831
0000f0 01 b4 ba bd ee 6d ee bd 26 95 be 3d db aa 79 bd
       -0.09116364 -0.11642061 0.093057916 -0.060953956
000100 4c 4e 4c 3e 32 50 99 bd 64 d7 7d be b1 dc 90 3d
       0.19951743 -0.07485999 -0.24789196 0.070733435
000110 5b ab 94 bd c8 74 25 bd 6b 92 74 be f8 e9 05 3b
       -0.07259246 -0.040394574 -0.23883979 0.0020433646
000120 3f cd 36 be fc 1e 14 3d 29 eb 00 3e f4 0a a1 be
       -0.17851733 0.03616236 0.12589706 -0.3145367
000130 1f 79 00 be 8a 5b c2 be f0 86 5b 3e c6 9f 1e 3e
       -0.12546204 -0.37960464 0.21438193 0.15490636
000140 59 47 b8 bd 20 31 5b 3e 13 3f be bd 80 08 9e be
       -0.089979835 0.21405458 -0.09289374 -0.3086586
000150 af b6 2c 3e 89 0a a5 3d 65 92 a0 3e 9c 40 cf 3a
       0.16866563 0.0805865 0.3136169 0.0015812102
000160 32 de 8e 3e 86 20 a2 3d 83 2e 1e 3e ac b6 87 be
       0.27903897 0.079163596 0.1544743 -0.26506555
000170 1e 7b 74 3e cb 2b 55 be 7a 86 90 3e 8d e8 99 bd
       0.2387509 -0.20817487 0.28227597 -0.07515059
000180 78 6a 82 be 54 59 e6 3c 9d 69 88 bd 03 81 9f be
       -0.25471854 0.028118767 -0.06660769 -0.31153116
000190 29 e6 93 bd 79 4e 7e bd 0b 29 62 3e 1c 0b d1 bd
       -0.07221634 -0.062086556 0.22085969 -0.10207197
0001a0 95 97 14 3e 0a 1e 79 3b cf 3a c2 3b 86 3e 52 3d
       0.14510949 0.003801229 0.0059274207 0.05132916
0001b0 0a 8f 6a bd 6a 4c 64 bd 11 ac 58 be 14 ce 7c be
       -0.05726532 -0.055736937 -0.21159388 -0.24687988
0001c0 4f d3 54 be 73 89 1a 3e 54 4f c6 bd 3e 94 a8 3d
       -0.20783733 0.15091495 -0.096830994 0.082314
0001d0 53 02 43 bd 32 09 4a bd 9f 98 a6 be 5a 64 a4 bd
       -0.04760964 -0.049325176 -0.32538316 -0.08026953
0001e0 29 f2 03 3c 93 ac 77 3d d3 23 b1 3c a1 ff fa bd
       0.008053341 0.060467314 0.021623528 -0.122557886
0001f0 47 8a dd bd d5 bf 31 3b 2a b8 3d be 73 96 7a bd
       -0.1081739 0.0027122397 -0.18527284 -0.061178636
000200 0a 96 3d bd c5 64 1c 3e 1b 25 50 3d 38 59 5c 3e
       -0.046285667 0.15272816 0.050816637 0.21518409
000210 20 a6 9e 3c 6e de 46 be bd 6f 37 3e 54 d3 8f be
       0.019366324 -0.19420788 0.17913719 -0.28090918
000220 ea c0 22 bc e9 c7 21 be 01 d5 c4 bd 37 b7 32 be
       -0.00993369 -0.15798916 -0.0961094 -0.17452703
000230 f4 20 2f 3e 61 54 1c 3e f8 8d f5 3d 81 73 47 3e
       0.17102414 0.15266563 0.11989969 0.19477655

linear4.bias f4 [12]
000000 52 ed 86 be 3a 2e f4 3c ec fc 5b 3e 55 a8 48 3e
       -0.26352936 0.029807199 0.21483201 0.19595464
000010 41 e5 87 be e8 43 da 3d 0a e0 12 be 15 1d 8c bc
       -0.26542094 0.10657483 -0.14343277 -0.017103711
000020 67 82 6a bd ba 36 56 be 91 5d 77 be 19 ca 17 be
       -0.057253268 -0.20919314 -0.24156787 -0.14823188

lin_bn4.weight f4 [12]
000000 82 46 80 3f 65 d5 7a 3f c6 e7 8c 3f 3f 3f 6d 3f
       1.0021517 0.97981864 1.1008232 0.9267463
000010 c9 6e 62 3f c4 7f 73 3f 85 ad 88 3f b8 cf 74 3f
       0.88450295 0.9511683 1.0677954 0.95629454
000020 76 e4 77 3f 42 e1 88 3f 5e 1c 67 3f a5 a3 81 3f
       0.9683298 1.0693743 0.9027766 1.0128065

lin_bn4.bias f4 [12]
000000 93 eb 8a b9 9c 2e ea bd a5 63 e1 3d 19 46 a8 bd
       -0.00026496928 -0.11434671 0.11005334 -0.08216495
000010 eb 24 91 bd 63 a8 d9 3d b4 f7 26 3e 4b c5 83 3d
       -0.0708712 0.1062782 0.16305429 0.06434115
000020 a1 3a 4c 3e 6f 93 6b 3e f4 31 42 be 00 11 a9 3d
       0.1994424 0.2300546 -0.18964368 0.082551956

lin_bn4.running_mean f4 [12]
000000 a3 ab 8d 3d f3 23 fd 3d b8 4e 38 3d 4c c2 d3 3e
       0.06917503 0.123603724 0.044996947 0.41359174
000010 d7 7f 12 bf 36 b9 2b be 24 c9 ee be 0d 1e f0 3e
       -0.5722632 -0.16769871 -0.46637833 0.46897927
000020 51 b5 6f be 44 b0 38 bf 02 83 88 be 61 8e 40 be
       -0.2340901 -0.7214396 -0.2666245 -0.18804313

lin_bn4.running_var f4 [12]
000000 42 fb e2 3d c6 f9 e2 3c 4b b6 e1 3e 85 39 ef 3d
       0.1108308 0.027706992 0.4408439 0.11680893
000010 bb cc e0 3d c0 61 8f 3d 2e f4 ac 3e 97 ad c0 3d
       0.10976549 0.07001066 0.33780044 0.0940811
000020 21 41 42 3e 6a 1d 6f 3e c8 62 e9 3c a2 15 95 3e
       0.18970157 0.23351064 0.028489485 0.29118067

linear5.weight f4 [50, 12]
000000 4b 85 18 3e cb 77 76 3e 60 87 0f be 37 d2 2c be
       0.14894597 0.24069135 -0.14016485 -0.16877066
000010 97 f8 40 bd bb a0 4d be 8f 68 94 3d 62 b6 88 3e
       -0.047112074 -0.20080845 0.072465055 0.26701647
000020 e9 9f ed bd e0 76 3a be 56 d6 76 3d 7f 03 85 3c
       -0.11602766 -0.1820941 0.060263 0.016237019
000030 67 b5 10 3e 88 e2 07 be bd 38 ae be 3a a8 bc 3d
       0.141317 -0.13270009 -0.34027663 0.09211774
000040 ed 6c 88 bd 69 a5 d0 bd 5b bb b3 bd fd d6 15 be
       -0.06661401 -0.101877995 -0.087759696 -0.14632793
000050 7e ea 90 3e 91 1a b6 bd ef 8f d5 3d c0 82 98 3e
       0.28303903 -0.08891786 0.10427844 0.29787254
000060 f3 2c 15 bc 1b 07 b6 3d 43 54 46 bd 75 4c 54 3e
       -0.009104955 0.08888074 -0.048420202 0.20732291
000070 cd 4e 8c be e8 89 dc 3d 18 bc 08 bc bb fd f9 3d
       -0.2740387 0.10768491 -0.008345626 0.12206598
000080 87 62 7c 3c 9a 2a fa bd a5 5f 21 bd 2b 90 1d 3e
       0.01540435 -0.12215157 -0.039397854 0.15387027
000090 29 cc 97 be 94 4a 83 be 35 5a 07 be 21 29 8e bd
       -0.2964795 -0.25642836 -0.13218005 -0.069414385
0000a0 cc 3e b7 3d 46 5a 64 3e 6e e6 5e bd 8b 76 8e 3e
       0.089475244 0.22300062 -0.054418974 0.27824816
0000b0 e1 e2 9c bd 01 c4 16 be 1d 7b b7 bd bf a7 34 be
       -0.07660461 -0.14723207 -0.08959029 -0.17642115
0000c0 37 63 86 be d7 61 91 be 5e e2 5c be ac b6 02 3e
       -0.2624757 -0.28394958 -0.21570727 0.12764996
0000d0 a6 84 bc 3d 36 88 86 3e a2 e0 35 3e 47 80 51 bd
       0.09204988 0.26275796 0.17761472 -0.051147725
0000e0 42 d7 69 3c be c5 62 be 8c 7a 67 3d ab 97 b3 be
       0.014272513 -0.22145745 0.056513354 -0.3507665
0000f0 86 2c dc 3d 0c 28 88 3d 04 1b 1d 3d 30 b9 ae 3d
       0.1075068 0.06648263 0.038355842 0.085314155
000100 2b 08 f0 bd 9b 57 4d 3e 81 f6 1b 3e b5 9c 69 3e
       -0.11720308 0.2005295 0.15230753 0.22813685
000110 cf 51 5d 3d f7 4a 2c 3e 4c 9c 24 3e 30 c8 48 3e
       0.054033097 0.16825472 0.16075248 0.19607615
000120 a2 11 54 3e a8 b5 c6 bc 10 36 2f 3e 41 24 35 3d
       0.20709851 -0.024256542 0.17110467 0.044224028
000130 2b b1 38 3e 23 cd 83 3e 3f e2 10 3e 8c 64 25 be
       0.18036334 0.25742444 0.14148806 -0.16151637
000140 05 3c 88 bd 4f 71 d3 3d fa 0f 15 bc 03 96 05 be
       -0.06652073 0.10324346 -0.009098047 -0.13045506
000150 b1 87 32 3e fe 03 29 3e 47 9c 5d be 24 1c 29 3b
       0.17434575 0.16505429 -0.21641646 0.0025804127
000160 69 67 8c bc 48 0c 20 be a2 2b d9 3d d9 c5 68 bd
       -0.017139154 -0.15629685 0.106040254 -0.056829307
000170 41 b0 14 be f6 59 9b bc a8 b6 93 bd 52 95 b5 3e
       -0.1452036 -0.018963795 -0.07212573 0.35465485
000180 3f 22 91 3d a9 0c 65 3e 0b 56 a8 3d a5 17 f6 3b
       0.0708661 0.2236811 0.082195364 0.007510143
000190 fb c3 a7 3d 18 52 5e bd 28 ae 9c be 9d 1b 66 be
       0.08191677 -0.05427751 -0.3060162 -0.22471471
0001a0 10 8f 35 be e5 75 e3 3c 34 03 16 3e 44 9a 8b 3d
       -0.17730355 0.027766177 0.1464966 0.06816533
0001b0 d2 10 8c 3e a4 86 2e 3d 50 54 44 bd e8 21 33 be
       0.27356583 0.042608872 -0.04793197 -0.17493403
0001c0 56 43 6c be 8e ae d5 be 73 f1 a3 3d 3e 45 da 3d
       -0.23072562 -0.41734737 0.08005037 0.10657738
0001d0 bf 60 2b 3e 88 03 ce bd 60 30 08 3d 4f 96 13 be
       0.16736124 -0.10059267 0.03324926 -0.14412807
0001e0 11 ac ac bd aa 62 ca 3d 65 00 49 bb 8f c0 15 bd
       -0.084312566 0.098821 -0.0030670401 -0.03656059
0001f0 b0 9d c0 bc 2c d0 a6 3d c8 42 05 be 0e b5 2c be
       -0.023512691 0.081451744 -0.13013756 -0.16865942
000200 db f3 29 3d d9 19 93 3b 94 aa 4a be f6 53 1b 3d
       0.041492324 0.0044891653 -0.19791633 0.03792187
000210 e9 84 a0 3a c5 ac a3 3c 2e 86 c4 bd e3 b3 56 bd
       0.0012246642 0.019979844 -0.09595905 -0.052417647
000220 c4 5b 8b be 77 d0 d5 3d 80 d7 ea bc a5 f9 28 3e
       -0.2721845 0.10440152 -0.028667212 0.16501482
000230 7b bc 9e bd c8 9b d8 3d af d5 23 3e 29 57 a3 3d
       -0.077507935 0.10576588 0.15999483 0.07975609
000240 65 98 85 be da ab 65 3e d7 f9 1d 3e de 1c 86 bd
       -0.2609283 0.22428837 0.15427338 -0.06548475
000250 03 70 8d 3b c9 32 7e be 84 9f 3c be 7b 0e 2e bd
       0.0043163314 -0.2482406 -0.18420225 -0.04249428
000260 47 26 3b be d5 c2 a7 3d 26 dd 7d be 0a 68 41 3e
       -0.1827632 0.08191458 -0.24791393 0.18887344
000270 94 90 a6 be c2 15 02 be 30 99 70 bd 3f 22 13 3e
       -0.3253218 -0.12703612 -0.05873984 0.14368533
000280 6e 32 c6 bc f2 33 0c 3b 1d 2e cf 3d 27 af 54 3e
       -0.024193969 0.0021393267 0.10116217 0.2076994
000290 11 7a 65 3d 6d 55 98 3d 01 c6 0f be 10 2c 1c be
       0.056024615 0.07438169 -0.14040376 -0.15251184
0002a0 44 66 a3 3e 99 97 0c be 44 31 8e 3c 0b 4b 80 3d
       0.3191396 -0.13729705 0.017357476 0.06264313
0002b0 88 48 5d 3e cb 60 f8 bd b7 08 84 be 12 02 ac bd
       0.216097 -0.12127837 -0.257879 -0.083988324
0002c0 a9 33 16 3e 06 f0 6d bc 9b 69 81 3e c5 3d 6d bd
       0.14668144 -0.014522558 0.25275883 -0.057920236
0002d0 a2 49 e5 3d 07 f2 0b be 1d e7 20 3e 04 1a 54 3e
       0.11195685 -0.13666545 0.15713163 0.20713049
0002e0 6d 9b 35 3e b5 d7 23 be 65 a5 03 be 31 41 63 3d
       0.17735071 -0.16000254 -0.12856062 0.055482093
0002f0 46 98 33 be 6e 78 c9 be f7 68 01 be 98 82 eb 3a
       -0.17538556 -0.39349693 -0.12637697 0.0017967997
000300 c0 85 e0 3d 10 41 1f 3d 9d b6 3c 3d b3 d3 85 3c
       0.10963011 0.038880408 0.04607259 0.016336298
000310 82 b2 67 be 9a 9c ee bc 40 02 51 be bc 0d 0c be
       -0.22626689 -0.029127408 -0.20411015 -0.13677114
000320 3b c4 e9 3d 8a 2c 8b be 64 eb a8 3c ca 71 a2 be
       0.11414381 -0.27182418 0.020620055 -0.3172744
000330 6f 71 5e 3d ac b4 02 be 62 6c 34 3e f3 04 ee bd
       0.054307397 -0.12764233 0.1761947 -0.11622038
000340 a2 8f 05 3e cc 19 87 be 8c d3 f9 3d 01 98 32 be
       0.13043073 -0.2638687 0.121985525 -0.17440797
000350 1f d2 c6 3d 77 d7 7e be 4c 5c 1b 3d 24 12 ae bd
       0.09708046 -0.24886881 0.037929818 -0.08499554
000360 53 c0 25 3e 6d dc 1b 3d 85 b1 9a be 84 5f 3d bd
       0.16186647 0.03805201 -0.30213562 -0.04623367
000370 89 79 3d be fb 9b 5c 3e 6d 4d c9 3d d2 54 0b be
       -0.18503393 0.21543877 0.09829221 -0.13606575
000380 81 bf 03 be 37 f1 75 3d 74 42 4a be 6d a0 a9 3d
       -0.12866022 0.060044494 -0.19751912 0.08282552
000390 6d 6e 41 3e d5 68 69 3e 6e 0f f9 3d cf ea 7d be
       0.1888978 0.22793896 0.12161146 -0.24796604
0003a0 f4 0d 0f 3e 7d b2 f0 bd 2c 4b ef bd 0b fa f6 bc
       0.13970166 -0.11752794 -0.1168426 -0.030148527
0003b0 60 8c 54 3e a8 f9 23 3e 75 c6 e8 3c 1d b4 05 3e
       0.20756674 0.16013205 0.028414944 0.13056989
0003c0 6e 03 96 be 34 2a f3 bb 8e 9d a9 be b8 c1 ef 3c
       -0.29299492 -0.0074208025 -0.33128017 0.029267177
0003d0 2f dc 3e be 8d 1e da bd 9b a9 3d 3e 05 4f 86 3e
       -0.18638681 -0.10650358 0.1852173 0.26232162
0003e0 2c f8 56 be 00 5f 20 be 9e 59 d5 bc 7d 8e 9d 3d
       -0.20993108 -0.1566124 -0.02604371 0.07693193
0003f0 82 05 2d be b1 f6 f4 bd 41 6e 85 be ec 6d 98 3d
       -0.16896632 -0.11961115 -0.2606068 0.07442841

linear5.bias f4 [50]
000000 04 6f 35 3d 89 60 8d 3e 96 91 05 3e 85 c0 12 3d
       0.044295326 0.27612713 0.13043818 0.035828132
000010 e0 1e e5 bc 81 63 a1 3d dc eb ae 3d 07 14 94 be
       -0.027968824 0.07880307 0.0854108 -0.2892153
000020 a8 89 5f be c0 71 2c 3d c2 05 3c 3e 81 11 17 3e
       -0.21829855 0.042100668 0.18361571 0.14752771
000030 05 ab 27 be 33 48 97 be 37 12 73 bd 53 f8 8d bc
       -0.16373833 -0.2954727 -0.059343543 -0.017330324
000040 8d f6 56 3d 9a cc 94 bd 12 60 3b 3e c9 a9 26 3c
       0.052481223 -0.07265587 0.18298367 0.010172316
000050 f5 4e 52 3e 32 4d 6a be fd 4f f2 3d 99 20 02 3d
       0.20537932 -0.2288101 0.11831663 0.03176937
000060 2b ac da bd 11 df 05 3e 42 6c 87 be d1 ae 6e 3e
       -0.1067737 0.13073374 -0.26449782 0.23308875
000070 4c c4 de 3c 76 56 d6 3c 3e e7 15 3e 93 3e 97 3c
       0.027193211 0.026164275 0.14638993 0.018462455
000080 cc a7 04 3e ab ca 41 3e 2e 83 70 be a7 d5 54 3e
       0.12954634 0.18924968 -0.23487541 0.20784627
000090 16 51 40 bd de 5e d3 bc 11 f9 a5 3d 02 86 63 3e
       -0.04695233 -0.025802072 0.08104146 0.22219089
0000a0 84 6b 26 be 60 e6 5b be 5e a9 57 3e a8 02 06 be
       -0.16251951 -0.214746 0.21060702 -0.13086951
0000b0 eb 4f 98 3d b5 a9 52 bd 09 74 75 3c e8 76 a5 3e
       0.07437118 -0.051431376 0.014981278 0.3231728
0000c0 0b 9a 11 be a9 9a 0c be
       -0.14218919 -0.13730873

lin_bn5.weight f4 [50]
000000 e2 64 74 3f 0b 17 80 3f e9 9d 7a 3f 9b 12 6e 3f
       0.95466435 1.0007032 0.978972 0.9299714
000010 3b d8 79 3f 32 07 84 3f 97 0a 75 3f 55 98 85 3f
       0.97595567 1.0314696 0.95719284 1.0437113
000020 ff f4 7a 3f bf 92 73 3f 4b 73 7e 3f 8f de 76 3f
       0.98030084 0.9514579 0.99394673 0.9643335
000030 cf 5b 94 3f 2c 00 82 3f eb 60 86 3f e1 a7 81 3f
       1.1590518 1.0156302 1.0498327 1.0129358
000040 78 34 88 3f 6d 48 83 3f da d0 65 3f 43 fc 66 3f
       1.0641012 1.0256478 0.8977181 0.9022867
000050 4a bc 82 3f fe b8 81 3f 4b 0f 72 3f 76 e4 58 3f
       1.0213711 1.013458 0.94554585 0.84723604
000060 5b 18 77 3f 9b c6 7e 3f 1f 8e 81 3f d4 d0 81 3f
       0.9652154 0.995218 1.0121497 1.0141854
000070 9d 3a 95 3f 67 8f 7b 3f a5 09 80 3f 75 cd 80 3f
       1.1658512 0.9826569 1.0002943 1.00627
000080 5c 19 6f 3f e8 a8 73 3f e4 18 68 3f 82 5f 78 3f
       0.9339807 0.95179605 0.9066298 0.97020733
000090 21 e2 7e 3f 02 b4 72 3f 37 41 91 3f 3e 9e 77 3f
       0.99563795 0.9480592 1.1348027 0.96725833
0000a0 1a 45 90 3f 69 26 78 3f 6f 9d 83 3f c2 c1 78 3f
       1.1271088 0.9693361 1.028242 0.9717065
0000b0 36 f8 6e 3f fc 38 81 3f 1a 85 90 3f 90 e8 6e 3f
       0.9334749 1.0095515 1.1290619 0.9332361
0000c0 59 f5 7e 3f f7 f8 79 3f
       0.9959312 0.97645515
